training/ctr_model.pth (torch, 20316 bytes, 5 tensors)

layer1.weight f4 [64, 2]
0	0xbe1d875c	-0.15383667
1	0x3ce4f415	0.027948419
2	0xbf2d94ca	-0.6780516
3	0x3e9e8cca	0.3096679
4	0xbeeea371	-0.4660907
5	0xbf330246	-0.69925344
6	0xbe646f41	-0.22308065
7	0xbef02254	-0.4690119
8	0xbd354292	-0.04425294
9	0x3eb64dcf	0.35606238
10	0x3f1bb006	0.60815465
11	0x3e8d2805	0.27569595
12	0x3f3f536f	0.74736685
13	0xbdc214c9	-0.09476621
14	0xbe1b1a6e	-0.15146801
15	0x3dff3089	0.12460429
16	0x3ebc1843	0.3673726
17	0x3e15956a	0.14607778
18	0xbe3f1f0a	-0.18664184
19	0xbeac0d51	-0.3360391
20	0x3d1a3759	0.03765044
21	0xbd993ceb	-0.07482322
22	0xbeaf806d	-0.3427767
23	0x3ece4f7d	0.4029502
24	0x3d5bbec7	0.053648736
25	0x3b082152	0.0020771814
26	0xbf2556d1	-0.64585596
27	0x3da2ff4c	0.0795885
28	0x3e9260a1	0.28589347
29	0xbf158cb6	-0.5841783
30	0xbf1e14ff	-0.6175079
31	0xbdabc8ea	-0.08387931
32	0x3e84e0fd	0.25952902
33	0x3e2db89a	0.16964951
34	0x3f1336a9	0.5750528
35	0xbf1059d6	-0.5638708
36	0x3e938863	0.28814992
37	0x3ede90e6	0.43469924
38	0x3eb4f188	0.35340524
39	0x3ef21fe5	0.4728996
40	0xbf349674	-0.70542073
41	0x3ed57051	0.41687253
42	0xbea2d285	-0.3180124
43	0x3e3941da	0.18091527
44	0xbeeb0e36	-0.4590928
45	0xbe806d57	-0.2508342
46	0x3eb3ee7d	0.3514289
47	0x3f236a73	0.63834304
48	0x3efe20a9	0.49634293
49	0xbf1cd45c	-0.61261535
50	0xbc9aa957	-0.018879576
51	0x3ef81140	0.4845066
52	0xbea2d614	-0.31803954
53	0x3e5f315d	0.21796174
54	0x3d856273	0.06512918
55	0xbf2c3c63	-0.6727964
56	0x3e93f3fd	0.28897086
57	0x3f2b2e29	0.6686731
58	0x3f3935c5	0.7234767
59	0xbe507d82	-0.20360377
60	0xbf0b1d88	-0.54341936
61	0xbe84d6e0	-0.25945187
62	0x3efa98a9	0.48944595
63	0x3e69a25a	0.22815838
64	0x3f32ee22	0.6989461
65	0xbd6d3540	-0.05791211
66	0xbe82f5e3	-0.25578222
67	0x3ef40eed	0.47667637
68	0xbc0fc762	-0.008775564
69	0xbf2f1dda	-0.68404925
70	0x3e1d7d39	0.153798
71	0x3e806a8a	0.25081283
72	0xbf181a41	-0.5941506
73	0x3c102951	0.008798913
74	0x3f2c32e8	0.67265177
75	0x3f08b6d5	0.5340398
76	0x3e8aee21	0.27134803
77	0x3e91786f	0.28412196
78	0x3f1ad7d1	0.6048556
79	0x3eb8057e	0.3594169
80	0x3e8049e6	0.2505638
81	0x3ce059e5	0.027386615
82	0x3de33468	0.1109398
83	0xbea7a7f6	-0.32745332
84	0x3ead9222	0.33900553
85	0x3e14bbc9	0.1452476
86	0xbf20963b	-0.62729234
87	0x3e6bd5d1	0.23030783
88	0xbef88805	-0.48541275
89	0x3e83d3cc	0.25747526
90	0xbe5a93ca	-0.2134544
91	0xbe0273b4	-0.1273945
92	0x3ded1a2d	0.11577258
93	0x3efe17a8	0.49627423
94	0x3f3ae464	0.73004746
95	0x3eb744bd	0.3579463
96	0x3e204e04	0.1565476
97	0x3f1abc17	0.6044325
98	0xbeb82ef6	-0.35973328
99	0x3d855614	0.06510559
100	0x3f107ffd	0.56445295
101	0xbebdd2dd	-0.37074938
102	0xbee93a36	-0.45552224
103	0x3eeda931	0.46418145
104	0xbe9d0064	-0.3066436
105	0x3c3866cd	0.011254978
106	0x3db34098	0.08752555
107	0xbd8421d7	-0.06451767
108	0xbee98222	-0.45607096
109	0xbdb1c3c2	-0.08679916
110	0xbefd0f53	-0.49425754
111	0x3f055dcd	0.52096254
112	0x3f1811aa	0.59401953
113	0xbf009d14	-0.5023968
114	0xbe46c12f	-0.19409631
115	0x3f0fb529	0.56135803
116	0xbf01277f	-0.5045089
117	0xbf28cc55	-0.65936786
118	0x3eb9e414	0.36306822
119	0x3f2517b7	0.6448931
120	0x3c54315b	0.01295122
121	0xbec525d0	-0.3850541
122	0xbee08ca7	-0.4385731
123	0x3e145f03	0.14489369
124	0x3e1252a4	0.14289337
125	0xbeaf4d25	-0.34238544
126	0x3e2b4eb3	0.1672924
127	0x3e5bf4e6	0.2148014

layer1.bias f4 [64]
0	0xbe76c8a7	-0.2409998
1	0x3e599705	0.21249016
2	0xbf2b6afe	-0.6696013
3	0x3e4c6c7c	0.19963259
4	0xbe326a8f	-0.17423461
5	0x3e414c36	0.18876728
6	0x3e6a5574	0.2288416
7	0xbea94f78	-0.33068442
8	0xbdf57d48	-0.11986786
9	0xbc46ecc5	-0.012141411
10	0x3e94122c	0.28920114
11	0x3f0d8fb1	0.5529738
12	0xbeeedde0	-0.46653652
13	0xbe4b844a	-0.19874683
14	0x3ed53d65	0.41648403
15	0x3ef848b3	0.48492965
16	0x3e7b9db5	0.24571879
17	0xbd262c5a	-0.04056964
18	0xbec3291c	-0.381173
19	0xbf18a2e9	-0.5962358
20	0xbf024a4c	-0.5089462
21	0x3d59b984	0.053155437
22	0xbee8f940	-0.45502663
23	0xbe86dbcc	-0.26339567
24	0x3ea81a44	0.3283254
25	0xbf0f46dd	-0.55967504
26	0x3f0d3d75	0.551719
27	0x3f084f22	0.5324575
28	0x3e5a6fb0	0.21331668
29	0xbe2fd6a6	-0.17171726
30	0x3ecb2b89	0.39681652
31	0x3f16db83	0.589287
32	0x3e456dfa	0.19280234
33	0xbf0ea4f2	-0.55720437
34	0xbf0e0511	-0.5547648
35	0xbe47f12c	-0.19525594
36	0xbcc2f77c	-0.02379965
37	0x3f11b007	0.5690922
38	0xbd73b1fc	-0.05949591
39	0x3e22c9c7	0.15897284
40	0x3f286653	0.65781134
41	0x3f115b99	0.5678039
42	0x3cb069af	0.021534769
43	0x3f2b1ab2	0.6683761
44	0xbea5eacc	-0.32405698
45	0xbd9943da	-0.07483645
46	0x3ee68a7a	0.45027524
47	0xbe33d50a	-0.17561737
48	0x3b1af630	0.0023645274
49	0xbf2bf5bd	-0.6717184
50	0x3f057f5a	0.5214745
51	0xbe21a78d	-0.15786572
52	0x3ec4f14a	0.3846534
53	0xbee59be2	-0.44845492
54	0x3f12e27f	0.57376856
55	0x3f00827d	0.5019911
56	0xbde26672	-0.11054696
57	0xbe46eb71	-0.19425751
58	0xbd33eaba	-0.043925025
59	0x3f126b6f	0.5719518
60	0xbe5d3cc1	-0.21605207
61	0xbd079648	-0.033102304
62	0x3d8f57ed	0.069991924
63	0xbea97baf	-0.33102176

layer2.weight f4 [64, 64]
0	0x3d940a10	0.07228482
1	0xbb213d40	-0.0024603158
2	0x3d7c3b88	0.06158021
3	0xbd4101d4	-0.047120884
4	0xbdf878ae	-0.12132393
5	0x3cd448f8	0.0259137
6	0xbd1bb068	-0.03801003
7	0x3c55c880	0.013048291
8	0xba5fbe00	-0.0008535087
9	0x3b979100	0.0046254396
10	0x3df54a5c	0.119770736
11	0xbc888d40	-0.016668916
12	0x3c444530	0.011979386
13	0xbd0a8b28	-0.033824116
14	0xbdd3e69a	-0.10346718
15	0x3dddd236	0.1083111
16	0xbdd0444e	-0.10169278
17	0xbd1eae1c	-0.038740262
18	0x3d0d0804	0.034431472
19	0xbdda970e	-0.10673343
20	0xbd447f04	-0.047972694
21	0x3ce94688	0.028476015
22	0x3df3f71c	0.11912367
23	0xbd44089c	-0.047859773
24	0xbd7a73bc	-0.06114553
25	0xbb99ec80	-0.0046973825
26	0x3d883202	0.06650163
27	0x3d1c7fd4	0.038207844
28	0x3d4b365c	0.049612388
29	0x3b73d540	0.0037205964
30	0xbd0ba184	-0.03408958
31	0x3bb385e0	0.0054786056
32	0xba523300	-0.0008018464
33	0xbcdcb658	-0.026942417
34	0xbdb9423e	-0.09045838
35	0xbcdcb660	-0.026942432
36	0xbcacd488	-0.021097437
37	0x3d0b6ed0	0.034041226
38	0xbd67322c	-0.056444332
39	0x3cdf72b0	0.027276367
40	0xbdb21a20	-0.08696389
41	0x3dafe532	0.085886374
42	0xbc18c320	-0.009323865
43	0xbd8391d4	-0.06424299
44	0xbcaa9b10	-0.020825893
45	0x3cbb5f48	0.022872582
46	0xbabd9480	-0.0014463812
47	0xbdb433be	-0.087989315
48	0xbda158c8	-0.07878262
49	0xbd7a36fc	-0.061087593
50	0x3de8f55a	0.11374922
51	0x3c0aab10	0.008463636
52	0x3ddc57f6	0.10758965
53	0x3d0a499c	0.033761606
54	0x3cbe0de8	0.02319999
55	0x3dfa4732	0.12220611
56	0xbdb5f024	-0.08883694
57	0xbdf965ac	-0.121775955
58	0x3d46715c	0.04844795
59	0xbd5b45e0	-0.053533435
60	0xbde95f36	-0.11395113
61	0xbdfce6e2	-0.12348725
62	0xbca052e8	-0.019570783
63	0x3defa034	0.11700478
64	0x3dcac8ca	0.09901579
65	0x3dcfbcca	0.101434305
66	0x3dbfef0c	0.093717664
67	0xbdeee002	-0.1166382
68	0x3d89bf9c	0.06726
69	0xbcfde5f2	-0.030993436
70	0xbdd7937d	-0.10526178
71	0xbd7ac6cc	-0.061224744
72	0x3d0a09a4	0.0337006
73	0x3d9b1cba	0.075738385
74	0x3d5f5c22	0.054531224
75	0xbdda9616	-0.10673158
76	0xbda9ad22	-0.082849756
77	0xbdbac94a	-0.09120424
78	0x3d4abab1	0.04949445
79	0x3b818b40	0.0039533675
80	0x3d8d9f84	0.06915191
81	0xbd386724	-0.045020238
82	0x3ca3607a	0.019943465
83	0xbe0bff62	-0.1367164
84	0x3cfcbe38	0.030852422
85	0xbd25d224	-0.04048361
86	0xbcdd8420	-0.027040541
87	0xbdc8d192	-0.09805597
88	0x3bbf4e6b	0.0058382056
89	0xbda19705	-0.07890133
90	0xbd3232dc	-0.043505535
91	0x3c9d1058	0.019172832
92	0x3caea06f	0.021316735
93	0x3d6b5595	0.057454664
94	0xbd9a87a0	-0.075454
95	0xbe2fdd63	-0.17174296
96	0xbdc4a28c	-0.09601316
97	0xbdd1a779	-0.10237021
98	0x3b268000	0.0025405884
99	0xbdd71e70	-0.10503852
100	0x3c8a97c8	0.016918078
101	0xbccf8bc9	-0.02533521
102	0x3b02754c	0.001990634
103	0xbcb15eec	-0.021651708
104	0xbcb990a1	-0.022651972
105	0x3dd62fbb	0.104583226
106	0x3d810dd4	0.06301466
107	0xbd099244	-0.033586755
108	0xbd98dba8	-0.07463771
109	0xbd191b08	-0.037379295
110	0xbe220aa8	-0.15824378
111	0xbd35cd14	-0.04438503
112	0xbe0ec9d5	-0.1394418
113	0xbdfe2752	-0.124098435
114	0xbd505567	-0.050862696
115	0xbb0f6556	-0.002188047
116	0xbd1e1cf0	-0.038601816
117	0xbda12f87	-0.07870393
118	0xbd667f7c	-0.056273922
119	0x3d24fb3d	0.040278662
120	0xbce45d4e	-0.027876522
121	0xbd988564	-0.07447317
122	0x3de34aee	0.11098276
123	0xbdd78129	-0.10522682
124	0x3d214978	0.039376706
125	0xbd8addc8	-0.06780583
126	0xbdd413ac	-0.103553146
127	0xbe276636	-0.16347584
128	0x3d0e94b8	0.034809798
129	0xbdfc6a7e	-0.12324999
130	0xbd7b3fc0	-0.061340094
131	0xbdc68f50	-0.096953034
132	0x3d6d896a	0.057992376
133	0xbdd35341	-0.10318614
134	0xbe222f52	-0.15838364
135	0x3c89d3f8	0.016824707
136	0xbd8e49ee	-0.06947695
137	0xbd767f08	-0.06017974
138	0x3d9ff525	0.078104295
139	0x3dc1f331	0.09470213
140	0x3d8380e0	0.06421065
141	0x3da57d58	0.08080548
142	0x3ca830cf	0.020531086
143	0x3de9f890	0.11424363
144	0xbd4faf77	-0.050704446
145	0x3d8fc42e	0.0701984
146	0xbd8757b9	-0.06608529
147	0x3b10cc9e	0.0022094618
148	0x3cece550	0.028917938
149	0xbda2f984	-0.079577476
150	0xbcc5f488	-0.024164453
151	0xbda5a795	-0.08088604
152	0x3d19f368	0.037585646
153	0x3c6e31f5	0.014538278
154	0xbd45992c	-0.04824178
155	0x3df8fa4c	0.12157115
156	0xbe273b65	-0.16331251
157	0x3b785fd8	0.0037898924
158	0x3b6fac40	0.0036571175
159	0xbc075b76	-0.008261552
160	0xbdfd0e47	-0.12356239
161	0x3aa449ce	0.0012534203
162	0x3de97db4	0.11400929
163	0xbddead34	-0.108728796
164	0xbdee0e90	-0.11623871
165	0xbd43f209	-0.047838245
166	0xbd6405de	-0.055669658
167	0xbdb4ef50	-0.08834708
168	0xbdce22ab	-0.10065206
169	0xbdaa3bdb	-0.08312198
170	0xbdecc208	-0.11560446
171	0x3db5cd88	0.088770926
172	0xbdbb52fe	-0.09146689
173	0xbd11d15c	-0.03560005
174	0xbd8de214	-0.069278866
175	0xbd179319	-0.037005518
176	0x3c994a5d	0.018712217
177	0x3db3f218	0.0878641
178	0xbdf60e77	-0.12014478
179	0xbd4c3192	-0.04985196
180	0xbdc2bd2a	-0.095087364
181	0x3cfb4964	0.030674644
182	0x3d4173cc	0.047229573
183	0xbd76bda3	-0.060239445
184	0xbcdbe25a	-0.026841331
185	0x3d1204ab	0.035648983
186	0x3d187920	0.03722489
187	0x3b3919a5	0.0028244045
188	0xbdfdcfe8	-0.123931706
189	0x3da4775e	0.0803058
190	0xbd18de9e	-0.03732168
191	0xbdbd73af	-0.092505805
192	0xbcba5020	-0.022743285
193	0xbcc42270	-0.023942202
194	0x3db97728	0.090559304
195	0xbdfc402a	-0.12316926
196	0xbdc5e5d6	-0.09662978
197	0xbda2a6c6	-0.07941966
198	0x3d888e56	0.066677734
199	0xbd90511a	-0.07046719
200	0xbdc911f2	-0.09817876
201	0xbd3bf8dc	-0.045891628
202	0x3d6b1de8	0.057401568
203	0xbc815bd0	-0.01579085
204	0x3d5d55b4	0.05403681
205	0x3beee180	0.0072900653
206	0x3d9552b6	0.072911665
207	0x3d14bbbc	0.03631185
208	0x3dbbda3c	0.09172484
209	0xbd29f9d0	-0.041498005
210	0x3d2b7000	0.04185486
211	0xbd7b2358	-0.061313003
212	0xbd74f108	-0.059800178
213	0x3c89d210	0.016823798
214	0x3c9bb998	0.019009396
215	0x3dfb896c	0.122820705
216	0xbd9bb5ca	-0.07603033
217	0xbd860d1c	-0.06545469
218	0xbd2a3d0c	-0.041562125
219	0xbc642a20	-0.013926059
220	0xbcdb8d20	-0.026800692
221	0x3db5e9e4	0.08882502
222	0x3b9aa740	0.004719645
223	0xbb015840	-0.001973644
224	0x3bd1c700	0.0064018965
225	0xbd52d938	-0.051476687
226	0x3db8f704	0.090314895
227	0x3dbed6cc	0.09318313
228	0x3b958f40	0.004564196
229	0x3d97c3da	0.074104026
230	0xbdc79e36	-0.09746973
231	0x3d2afe34	0.041746333
232	0xbd23b00c	-0.039962813
233	0xbd31431c	-0.04327689
234	0xbddf4424	-0.10901669
235	0x3dceb5f2	0.10093297
236	0x3db88ba0	0.09011006
237	0x3d707b08	0.05871108
238	0x3b765800	0.0037589073
239	0xbde1e1f2	-0.11029424
240	0x3d92ec64	0.07173994
241	0x3db55d22	0.08855654
242	0x3cad5fa8	0.021163777
243	0x3dee560a	0.116375044
244	0x3d401c58	0.04690203
245	0xbd236d60	-0.03989923
246	0xbd975db2	-0.07390918
247	0x3dba8bb8	0.091086805
248	0x3cf55b98	0.029950902
249	0x3d93a6d8	0.07209557
250	0xbd0bb834	-0.034111217
251	0xbdb44c3c	-0.08803603
252	0xbd9e1142	-0.077181354
253	0xbddacdd4	-0.1068379
254	0xbc9461a0	-0.018112957
255	0xbdf0f8ba	-0.11766191

layer2.bias f4 [64]
0	0xbd90a0c0	-0.07061911
1	0xbd4701d9	-0.048585746
2	0xbcf60e99	-0.030036258
3	0x3d4aea2c	0.04953973
4	0x3d13ed73	0.03611512
5	0xbd745227	-0.05964866
6	0x3cff6c24	0.031179495
7	0xbda08645	-0.0783811
8	0x3cb29670	0.02180025
9	0xbd1a56bf	-0.037680384
10	0x3d266f34	0.040633395
11	0x3d5fdd86	0.05465462
12	0x3d78aea7	0.060713436
13	0xbde5d0c2	-0.11221458
14	0xbdcd320a	-0.1001931
15	0x3d486c90	0.04893166
16	0xbd1333aa	-0.035937943
17	0x3d159317	0.03651723
18	0x3dbf017a	0.093264535
19	0x3dd952a2	0.10611464
20	0x3dcd00ee	0.10009943
21	0x3d370800	0.044685364
22	0x3dc4856e	0.09595762
23	0x3dfe8b6c	0.12428936
24	0x3d5af6a0	0.053457856
25	0x3db99790	0.090621114
26	0xbdb8c8c6	-0.090226695
27	0xbd99b86b	-0.07505878
28	0xbd4ae01b	-0.04953013
29	0x3da85495	0.08219258
30	0xbde836e6	-0.11338596
31	0x3dd71720	0.105024576
32	0xbddbd3bc	-0.107337445
33	0xbdf15527	-0.1178382
34	0x3d996732	0.07490386
35	0x3cb0a86a	0.021564681
36	0xbc38d7b0	-0.011281893
37	0x3d51fa29	0.051263962
38	0x3d97c3b8	0.07410377
39	0x3ce4fdec	0.02795311
40	0x3da82fe5	0.0821226
41	0x3dd2354a	0.1026407
42	0x3d02d9fb	0.031946164
43	0x3db3f4bf	0.08786916
44	0xbdc61a77	-0.096730165
45	0x3d1af100	0.03782749
46	0x3d2d6980	0.04233694
47	0x3d9bd3a2	0.07608725
48	0x3dc0fd68	0.094233334
49	0x3da4d65a	0.08048697
50	0x3a671386	0.000881486
51	0xbca76980	-0.020436049
52	0xbd729188	-0.05922082
53	0xbd85bba8	-0.06529933
54	0x3dfec9a2	0.12440802
55	0xbcf819fa	-0.030285824
56	0xbc8a4af8	-0.016881451
57	0x3b862f60	0.004095003
58	0xbd87d25c	-0.0663192
59	0xbde3cd86	-0.11123185
60	0xbdadd2a2	-0.08487441
61	0xbcd28e68	-0.02570267
62	0xbda3bee8	-0.07995397
63	0x3d6c1ff8	0.057647675

output.weight f4 [1, 64]
0	0xbbf2af00	-0.0074061155
1	0xbba3f99d	-0.0050041215
2	0xbed6c8a4	-0.41949952
3	0x3db7ee38	0.089809835
4	0xbd8ec48d	-0.06971083
5	0xbe86d71c	-0.2633599
6	0xbe6e6f68	-0.23284686
7	0xbef23f03	-0.473137
8	0xbcddbbb8	-0.02706705
9	0xbebf7003	-0.37390146
10	0xbdf28506	-0.118417785
11	0xbf6b248a	-0.9185263
12	0xbe785c85	-0.24254043
13	0xbd7973a8	-0.060901314
14	0x3dcf5606	0.101238295
15	0xbd12c7a8	-0.03583494
16	0xbec076c6	-0.37590617
17	0xbede1589	-0.43375805
18	0xbee0fb19	-0.43941572
19	0x3d46b79c	0.048514947
20	0xbe9d104e	-0.30676502
21	0xbeab28b1	-0.33429483
22	0x3d124141	0.035706762
23	0xbf08b65c	-0.5340326
24	0xbf291e92	-0.6606227
25	0xbede0bbd	-0.4336833
26	0x3d4c4c69	0.049877558
27	0xbd5ef13e	-0.054429285
28	0xbd7e2ffd	-0.062057484
29	0xbf1a63b4	-0.60308385
30	0xbf73e94e	-0.9527787
31	0x3d86b2fa	0.06577106
32	0xbe2143bb	-0.15748493
33	0xbe0ca8ef	-0.13736318
34	0xbd9a01a2	-0.07519843
35	0xbf6d2c00	-0.92645264
36	0xbc1dcb40	-0.009630978
37	0x3b57ddf4	0.003293869
38	0xbec5cea1	-0.38634208
39	0xbe936f60	-0.2879591
40	0xbedd7832	-0.43255764
41	0xbe1b0ecc	-0.15142363
42	0xbe82fbc8	-0.2558272
43	0xbedd5bc7	-0.43234083
44	0xbeb68a8e	-0.35652584
45	0xbcc41588	-0.023936048
46	0xbeb44744	-0.3521062
47	0x3cea02a8	0.02856572
48	0x3c9f94c0	0.01948011
49	0x3d982382	0.074286476
50	0xbce9e784	-0.028552778
51	0x3bf911e0	0.007601008
52	0x3dbdff50	0.092772126
53	0x3dcebbde	0.100944266
54	0xbcc93a40	-0.024563909
55	0xbdf8b351	-0.12143577
56	0x3d9d5b78	0.07683462
57	0xbdaef1da	-0.08542223
58	0x3dde8bb4	0.1086649
59	0x3dd3a742	0.10334636
60	0xbcbd4428	-0.023103788
61	0xbd973fea	-0.073852375
62	0x3d0d0384	0.03442718
63	0x3d7c7aac	0.061640427
